computeserver/server/EBS/public/tensors/public-2d-01.safetensors (safetensors, 8088 bytes, 1 tensors)

public-2d-01 f4 [1000, 2]
2.1109467 1.2848806 0.41642556 0.48632312 1.2150314 0.75518733 0.95362437 0.61119395
0.33734256 0.6213948 0.8048111 1.1572907 1.5016938 1.4326886 -2.2395897 -1.3414079
0.38028514 0.14867078 -0.11991469 -0.39115712 1.6291486 1.1949223 -0.67389345 -0.41335526
0.30407688 -0.124956965 -0.0016597847 -0.1447553 0.64222336 0.4596994 -0.5260107 -0.23585078
0.8944815 0.96996987 1.1770784 1.421585 0.09826618 -0.075878374 -1.996792 -0.54834914
-0.4190988 -0.19616334 0.18856423 -0.2684785 -0.44266647 -0.2962171 -0.20112146 -0.08082447
0.032325488 0.3404369 -0.61863345 -0.3604302 0.6027634 0.2598303 -0.70176756 -0.53272784
-0.6694712 -0.6221202 -0.026662169 -0.446579 -1.7726858 -1.1511786 -0.38830894 -0.20296489
-0.66027766 -0.8491643 -1.967038 -1.5782814 -1.1572598 -1.2676142 1.6988252 1.4373105
1.6788492 1.265624 -0.46410748 -0.30134782 0.20739555 0.10750153 0.9571264 0.09480618
-1.6548208 -1.2244717 -1.133615 -0.44488436 0.21225023 0.05139349 0.17125116 -0.15411371
0.54204917 0.6275471 0.18968117 0.3145396 -0.5207261 -0.032279547 0.9906259 1.3355081
1.1928909 0.84114176 1.9062288 1.297646 -0.39697865 -0.80774516 -0.38057733 -0.5558638
-0.91033036 -0.9168662 1.3522601 1.447627 0.3260022 0.20138854 1.468849 1.0178249
0.59363514 0.41491193 1.4879075 1.1738085 -2.2737913 -1.2533514 -1.7729259 -1.2156442
-2.2126114 -1.64664 0.68179965 0.67819977 0.6413781 0.11416543 -0.48669872 -1.0564715
-0.19346064 0.030858602 0.52830136 0.22462113 -0.9724155 -0.123273216 0.33305448 0.3084026
-2.0882304 -1.6435121 0.009623509 0.30640537 -0.31612304 -0.7411264 -0.78655076 -0.63569033
0.9154451 1.157426 -0.9131974 -0.64295584 0.74899656 1.0852891 0.4363337 0.5568752
0.6999818 0.49357036 -0.0967372 -0.33999723 0.3186765 -0.06020133 0.84439605 0.5688691
-0.9270159 -1.1203489 -0.23727709 0.20381373 1.2525257 1.4573547 0.21492834 0.26204214
-0.91133857 -0.98943216 0.7776993 1.1868016 -1.5384351 -0.6580247 0.14526697 -0.4455006
0.72856104 0.04833146 0.8756121 -0.014752462 -0.40934175 0.06694736 -0.9018351 -0.2236113
0.017812377 0.14532635 -0.007971888 -0.24926057 0.9396226 0.99395204 -0.50680983 -0.43667054
-0.4734901 -0.4489583 -0.03704145 0.2319998 -0.7762083 -0.6284066 0.8102423 0.5772595
0.1390257 -0.52234757 2.0768285 1.5825058 0.5867545 0.51515734 0.62450165 0.05264567
2.069029 0.88622534 0.4331889 0.14348242 -0.9667251 -0.69600606 0.6726996 0.42062953
0.7960855 0.67712146 -0.26400158 -0.26746818 0.24275902 0.43546465 1.054788 0.51967674
-0.48134494 -0.4265983 0.38464394 0.26239598 0.33502558 0.4007406 -0.7085969 -0.85258365
-0.17168598 -0.20247698 0.10383945 0.09428197 0.95615476 0.62568897 -0.55594414 -0.63409597
-0.8719786 -0.9417222 0.3597938 0.36521444 0.42728573 0.72311044 0.015306477 -0.20622528
-2.270882 -1.3631085 -0.7562759 -0.7655626 -0.010457137 0.4635994 0.6721964 0.033508264
00000000: c019 0740 f876 a43f bb35 d53e 58ff f83e
00000010: 2686 9b3f f553 413f ba20 743f 3577 1c3f
00000020: 2ab8 ac3e bb13 1f3f 1a08 4e3f 1a22 943f
00000030: 8137 c03f 5762 b73f 7055 0fc0 41b3 abbf
00000040: bcb4 c23e 273d 183e d595 f5bd bf45 c8be
00000050: f187 d03f 37f3 983f 4884 2cbf 4da3 d3be
00000060: f7af 9b3e 70e9 ffbd 228d d9ba bc3a 14be
00000070: c068 243f b85d eb3e a3a8 06bf de82 71be
00000080: bdfc 643f f24f 783f 81aa 963f 7ff6 b53f
00000090: c73f c93d 1f66 9bbd e196 ffbf 9c60 0cbf
000000a0: 1e94 d6be 0bdf 48be fb16 413e 0476 89be
000000b0: 2ea5 e2be c5a9 97be c9f2 4dbe 4d87 a5bd
000000c0: bb67 043d bf4d ae3e c35e 1ebf 4f8a b8be
000000d0: b44e 1a3f 7a08 853e 0aa7 33bf da60 08bf
000000e0: 7762 2bbf 4543 1fbf 9f6a dabc 01a6 e4be
000000f0: 5ee7 e2bf d259 93bf 6ed0 c6be 07d6 4fbe
00000100: f507 29bf d562 59bf e7c7 fbbf 2005 cabf
00000110: 1721 94bf 2f41 a2bf 1b73 d93f caf9 b73f
00000120: 88e4 d63f f8ff a13f 7f9f edbe 434a 9abe
00000130: 805f 543e c329 dc3d 3c06 753f be29 c23d
00000140: 2bd1 d3bf 7dbb 9cbf 4c1a 91bf e2c7 e3be
00000150: 2058 593e fb81 523d 775c 2f3e fccf 1dbe
00000160: bcc3 0a3f eda6 203f c83b 423e 560b a13e
00000170: 4e4e 05bf 8f37 04bd a999 7d3f eef1 aa3f
00000180: a6b0 983f 1155 573f 4eff f33f 4419 a63f
00000190: c940 cbbe 63c8 4ebf 08db c2be 174d 0ebf
000001a0: 690b 69bf beb7 6abf dc16 ad3f d74b b93f
000001b0: c3e9 a63e cc38 4e3e 3e03 bc3f 1648 823f
000001c0: 79f8 173f 566f d43e c173 be3f 5b3f 963f
000001d0: cc85 11c0 d26d a0bf 3cef e2bf 3b9a 9bbf
000001e0: 6d9b 0dc0 19c5 d2bf 6c8a 2e3f 809e 2d3f
000001f0: 5b31 243f 91cf e93d 9330 f9be 753a 87bf
00000200: 8c1a 46be 2ecb fc3c c23e 073f 1503 663e
00000210: 39f0 78bf ab76 fcbd 1e86 aa3e f2e6 9d3e
00000220: 91a5 05c0 9b5e d2bf ecab 1d3c 2ae1 9c3e
00000230: e1da a1be 76ba 3dbf 645b 49bf 9abc 22bf
00000240: 9c5a 6a3f 8926 943f 4ec7 69bf c198 24bf
00000250: 3dbe 3f3f c1ea 8a3f 2167 df3e 608f 0e3f
00000260: 0232 333f 41b5 fc3e 271e c6bd 1e14 aebe
00000270: 9129 a33e ab95 76bd 572a 583f 68a1 113f
00000280: ea50 6dbf 9867 8fbf c4f8 72be 8cb4 503e
00000290: c352 a03f 998a ba3f 2d16 5c3e 632a 863e
000002a0: 7c4d 69bf 6d4b 7dbf 4d17 473f 1de9 973f
000002b0: 71eb c4bf 4f74 28bf ddc0 143e a818 e4be
000002c0: fa82 3a3f 36f7 453d 1d28 603f 4fb4 71bc
000002d0: 3e95 d1be b31b 893d aade 66bf 5cfa 64be
000002e0: 43eb 913c 6ed0 143e 869c 02bc 2a3e 7fbe
000002f0: 1b8b 703f a473 7e3f 4abe 01bf 4893 dfbe
00000300: 4b6d f2be dddd e5be c7b8 17bd 5b91 6d3e
00000310: 96b5 46bf 41df 20bf 0a6c 4f3f 47c7 133f
00000320: c15c 0e3e 92b8 05bf c2ea 0440 8d8f ca3f
00000330: 8b35 163f 5ae1 033f 57df 1f3f fca2 573d
00000340: f96a 0440 aadf 623f efca dd3e 0eed 123e
00000350: 4c7b 77bf 742d 32bf 0a36 2c3f c15c d73e
00000360: 42cc 4b3f d557 2d3f 372b 87be 97f1 88be
00000370: d295 783e 39f5 de3e 4b03 873f 8909 053f
00000380: d872 f6be 186b dabe 0df0 c43e c458 863e
00000390: 7988 ab3e df2d cd3e 9b66 35bf ec42 5abf
000003a0: 73ce 2fbe 2056 4fbe c7a9 d43d e816 c13d
000003b0: 8fc6 743f 272d 203f 5b52 0ebf 1d54 22bf
000003c0: fd39 5fbf b514 71bf e536 b83e 63fd ba3e
000003d0: 32c5 da3e c41d 393f 05c8 7a3c b82c 53be
000003e0: 2156 11c0 577a aebf 4c9b 41bf e9fb 43bf
000003f0: 6954 2bbc e75c ed3e 1015 2c3f f63f 093d
